semeion.tflite (tflite, 138648 bytes, 8 tensors)

sequential_15/dense_30/BiasAdd/ReadVariableOp/resource f4 [64]
0	0xbd946ae4	-0.0724695
1	0x3d00a8f7	0.031411137
2	0x3e0d363e	0.13790223
3	0xbda86bbb	-0.08223673
4	0x3d9c7211	0.07638944
5	0xbe1324c8	-0.143695
6	0xbe81382a	-0.25238162
7	0xbdc97369	-0.09836466
8	0x3daa2770	0.08308303
9	0x3e8c7e04	0.27439892
10	0x3db44e28	0.088039696
11	0x3d6f855d	0.058476795
12	0x3d88ce02	0.06679918
13	0x3dace5d7	0.08442276
14	0xbe182ef5	-0.14861663
15	0x3e6917b2	0.22762945
16	0x3e1ced81	0.15324976
17	0x3ec4f6c9	0.38469532
18	0xbd955691	-0.07291902
19	0x3e888762	0.2666579
20	0xbd3f6d90	-0.046735346
21	0x3bdc973d	0.006731896
22	0xbe25f86b	-0.16208045
23	0xbe65f210	-0.22455621
24	0xbe985435	-0.29751745
25	0x3e0bac92	0.13640049
26	0x3ee77a60	0.45210552
27	0xbdd77ee0	-0.10522246
28	0x3eb5464e	0.354052
29	0xbe83a0de	-0.2570867
30	0x3e5ed758	0.21761835
31	0xbe57a4ba	-0.21058932
32	0xbe66913a	-0.22516337
33	0x3e88f2a4	0.2674762
34	0x3e23caaf	0.15995286
35	0xbe331e45	-0.17492016
36	0xbe8c4b1c	-0.27401054
37	0x3e25f77f	0.16207694
38	0x3e344ab9	0.1760663
39	0x3ed794cf	0.4210572
40	0xbe0b6de7	-0.13616143
41	0x3e4c1153	0.19928484
42	0x3e0e2c62	0.13884118
43	0xbdd0a023	-0.10186794
44	0x3dbe5c4e	0.092949495
45	0xbdf89639	-0.12138028
46	0xbea029c3	-0.31281862
47	0x3e163269	0.14667667
48	0xbe0a283f	-0.13491915
49	0xbe45a21e	-0.19300124
50	0x3e82a361	0.25515273
51	0x3ee00578	0.43754172
52	0x3ebacd47	0.3648474
53	0x3cd63915	0.026150266
54	0x3ec949f0	0.39314222
55	0xbe1fcc41	-0.1560526
56	0x3d53cd83	0.051709663
57	0x3d345df6	0.04403492
58	0xbd52a4e0	-0.05142677
59	0x3e15c92a	0.14627519
60	0x3ccf3599	0.025294112
61	0x3ea25f97	0.31713554
62	0xbdfaa1fa	-0.12237926
63	0xbd44161f	-0.04787266

sequential_15/dense_30/MatMul/ReadVariableOp/resource f4 [256, 64]
0	0x3e35bc5b	0.17747633
1	0xbea26db4	-0.31724322
2	0x3e69ac08	0.22819531
3	0x3ec9e77a	0.39434415
4	0xbe489d0d	-0.1959116
5	0xbd9353d5	-0.07193724
6	0x3f316cef	0.69306844
7	0xbe6c2fa9	-0.23065056
8	0xbef658da	-0.48114663
9	0x3f00a475	0.5025094
10	0x3f249e13	0.643037
11	0xbf07c5fd	-0.5303648
12	0xbdd84f0c	-0.10561952
13	0x3ea355ba	0.31901342
14	0xbf1c6e65	-0.6110595
15	0x3ee50f4c	0.44738233
16	0x3e938931	0.28815606
17	0x3ec5267c	0.38505924
18	0x3dcec95d	0.10097001
19	0xbf15e427	-0.5855126
20	0x3d30d9c7	0.04317644
21	0xbf2f03bb	-0.6836507
22	0xbdf24bb3	-0.11830845
23	0xbf17bec8	-0.59275484
24	0x3dbf63b2	0.09345187
25	0xbee299a9	-0.44257858
26	0xbd53a266	-0.051668547
27	0xbf18d1c7	-0.59695095
28	0x3bb77f3f	0.0055998857
29	0x3f276029	0.65381104
30	0xbdf5c2e2	-0.120000616
31	0xbef6b3a6	-0.48183936
32	0x3ebca5b4	0.3684517
33	0x3ec9081c	0.39264
34	0x3e9625fa	0.2932585
35	0x3eac1e7e	0.33617014
36	0x3ecb8500	0.39749908
37	0xbd86b22a	-0.06576951
38	0x3d795924	0.060876027
39	0x3ddf882d	0.10914645
40	0xbe2e86d0	-0.17043614
41	0x3f196262	0.59915745
42	0x3e9af224	0.30262864
43	0x3ef2c81e	0.47418302
44	0x3ee5e912	0.4490438
45	0xbeeaf02c	-0.45886362
46	0xbec80743	-0.3906804
47	0x3ea72620	0.32646275
48	0x3eb96cb2	0.3621574
49	0x3a86af01	0.0010275544
50	0x3ebf2313	0.37331447
51	0x3f0d2070	0.5512762
52	0x3f02b2c3	0.5105402
53	0x3f167cb3	0.58784026
54	0xbd282c20	-0.041057706
55	0x3dc1182f	0.09428441
56	0xbf06eac0	-0.5270195
57	0xbf1c3526	-0.610186
58	0xbed2d5f4	-0.41178858
59	0x3e23dbc1	0.16001798
60	0xbefd35b0	-0.49455023
61	0xbf072c6a	-0.52802145
62	0xbe8b6ee9	-0.27233055
63	0xbec33c9a	-0.38132173
64	0x3dafa9cb	0.08577307
65	0xbe3a893c	-0.18216413
66	0x3e93a6d0	0.28838205
67	0x3eac5521	0.33658698
68	0xbde575eb	-0.11204132
69	0x3e52e88b	0.2059652
70	0x3f068eb8	0.5256152
71	0xbea8cc69	-0.32968453
72	0xbed83c29	-0.422334
73	0x3e153711	0.14571787
74	0x3f14220a	0.5786444
75	0xbedaa5a2	-0.42704493
76	0xbe23cbaa	-0.1599566
77	0x3ed26d53	0.41099033
78	0xbea48fb7	-0.32140896
79	0x3eaa5ad5	0.33272424
80	0x3e8d807a	0.27637082
81	0x3e801c19	0.25021437
82	0x3e26638c	0.16248912
83	0xbf2b7838	-0.66980314
84	0xbab0083e	-0.0013430191
85	0xbe0d2ec2	-0.13787368
86	0xbe37466e	-0.1789796
87	0xbe9c0f7e	-0.3048057
88	0xbd9fcc03	-0.07802584
89	0xbebf7368	-0.37392735
90	0xbeb48265	-0.35255733
91	0xbe54cea8	-0.20781958
92	0xbe67787b	-0.22604553
93	0x3f033ab7	0.51261467
94	0xbeafe269	-0.34352425
95	0xbe8843ec	-0.2661432
96	0x3ebe8747	0.37212583
97	0xbbd0a4c8	-0.0063672997
98	0x3e1e9f7b	0.15490524
99	0x3db5a46b	0.08869251
100	0x3e23236d	0.15931483
101	0x3e03d5c8	0.1287452
102	0x3de33f52	0.11096062
103	0x3e1acf80	0.15118217
104	0x3e1af0a9	0.15130867
105	0x3ef4dda5	0.4782535
106	0x3ed37cf3	0.41306266
107	0x3ebb73bf	0.36611745
108	0x3e8ba919	0.2727745
109	0xbe7b3dd4	-0.24535304
110	0xbea411e9	-0.32044914
111	0x3e46fb5f	0.19431828
112	0x3e4cdd89	0.20006384
113	0xbdbc72df	-0.092015974
114	0x3ed08781	0.4072838
115	0x3e918ad6	0.28426236
116	0x3ed1883c	0.4092425
117	0x3f07285b	0.5279595
118	0x3e8827ed	0.2659296
119	0x3e025186	0.12726411
120	0xbef686f3	-0.48149833
121	0xbe5ff0b0	-0.21869159
122	0xbe221b68	-0.15830767
123	0x3dbcd83f	0.09220933
124	0xbe95adca	-0.29234153
125	0xbea3ef3b	-0.32018456
126	0xbd850d70	-0.064967036
127	0xbec72497	-0.38895103
128	0x3db15312	0.086584225
129	0xbd607429	-0.05479828
130	0x3c9680b0	0.01837191
131	0x3e089c59	0.13340892
132	0xbe84d466	-0.25943297
133	0x3cb07b65	0.021543214
134	0x3e7c8796	0.24661097
135	0xbdb2a0e7	-0.08722096
136	0xbe522b65	-0.20524366
137	0x3ee641cb	0.4497207
138	0x3ebd39fe	0.36958307
139	0xbc5a5c45	-0.013327663
140	0xbd202156	-0.03909429
141	0x3c35d0df	0.011097162
142	0xbe3f0a63	-0.18656306
143	0x3eedbfa8	0.46435285
144	0x3e832516	0.25614232
145	0xbe825ed9	-0.25462988
146	0xbdfd0456	-0.12354343
147	0xbe5d10be	-0.21588418
148	0xbd097d33	-0.033566665
149	0x3cafa31a	0.021440078
150	0xbe80ad1b	-0.2513207
151	0xbe74f1b1	-0.23920323
152	0x3ea90635	0.33012548
153	0x396c791e	0.00022551834
154	0xbe53b754	-0.20675403
155	0xbe0095e2	-0.12557176
156	0xbdbb21de	-0.09137319
157	0x3e9f9a15	0.31172243
158	0xbeb1407a	-0.34619504
159	0x3e44b01f	0.1920781
160	0x3e94c2fd	0.29055014
161	0xbd901655	-0.070355095
162	0x3de206d3	0.11036458
163	0xbe84b8fa	-0.25922376
164	0xbe07b84f	-0.13253902
165	0xbe1c066e	-0.15236828
166	0x3e1862e6	0.14881477
167	0x3e31cda9	0.1736361
168	0x3d6bb892	0.057549067
169	0x3ec2bf9c	0.3803681
170	0x3ea894ab	0.32925925
171	0x3e272939	0.16324319
172	0x3ea35ff3	0.3190914
173	0xbecfe9e8	-0.40608144
174	0xbe870727	-0.26372644
175	0x3d42fc4a	0.047603883
176	0xbd8c884b	-0.06861933
177	0xbe90ed97	-0.28306267
178	0x3edb4c7a	0.42831784
179	0x3f0da68e	0.5533227
180	0x3e283c10	0.16429162
181	0x3e86cb86	0.2632715
182	0x3ec4f21a	0.3846596
183	0xbd3da802	-0.046302803
184	0xbec4c9a3	-0.38435087
185	0xbeb0e564	-0.3455001
186	0xbd721a07	-0.059106853
187	0x3c8d1ddf	0.017226158
188	0xbe656191	-0.224005
189	0x3d86d3c5	0.065833606
190	0xbeaa6056	-0.33276623
191	0xbeb15e12	-0.34642082
192	0x3e73cad9	0.23807849
193	0xbcb0aa49	-0.021565573
194	0xbd9f0add	-0.07765744
195	0x3e983381	0.29726794
196	0xbb995c23	-0.004680173
197	0x3e1257bf	0.14291285
198	0x3e8bf6ce	0.27336735
199	0xbe15142a	-0.14558473
200	0xbebd02d7	-0.3691623
201	0x3e039ad6	0.12852034
202	0x3eb31689	0.3497813
203	0xbe9f3086	-0.31091708
204	0xbeb1c2c6	-0.34718913
205	0xbc93330e	-0.01796868
206	0xbe6a7e10	-0.22899652
207	0x3eb70354	0.35744727
208	0x3eb40ffa	0.3516844
209	0xbe9c75e2	-0.30558687
210	0x3c9b5399	0.01896076
211	0xbe759262	-0.23981622
212	0x3ed715c6	0.420088
213	0xbbc0fdfa	-0.0058896514
214	0xbea099b8	-0.31367278
215	0xbe5abf8f	-0.21362136
216	0x3ec08154	0.3759867
217	0xbe95f0cc	-0.29285276
218	0xbe451fb7	-0.1925038
219	0xbcd73ecd	-0.026275063
220	0xbe91f5e2	-0.28507906
221	0x3ed96d68	0.42466283
222	0xbe8f553d	-0.2799472
223	0x3da931e0	0.08261466
224	0x3ea35560	0.31901073
225	0x3e4a9d8b	0.1978666
226	0x3e4db1a1	0.20087291
227	0x3e245c46	0.16050825
228	0x3e455941	0.19272329
229	0xbdcc05c9	-0.09962041
230	0x3e5139e4	0.2043224
231	0x3dba5f0f	0.09100162
232	0x3e86df05	0.26342025
233	0x3ebe650a	0.37186462
234	0x3ef770ff	0.48328397
235	0x3ebb79b5	0.36616293
236	0x3e94d0c8	0.29065537
237	0xbee42d3c	-0.4456576
238	0xbde52acf	-0.11189806
239	0x3db85ed7	0.09002464
240	0x3e3d91f5	0.1851271
241	0xbe8af667	-0.27141115
242	0x3f01d1e6	0.50710905
243	0x3ecf905f	0.40539834
244	0xbd17ad65	-0.037030596
245	0x3e70109a	0.23443833
246	0x3ea21f34	0.3166443
247	0x3cb061c2	0.02153099
248	0xbec26c07	-0.37973043
249	0xbe5d7124	-0.21625191
250	0xbe7734c5	-0.24141224
251	0x3e07a8d0	0.1324799
252	0xbe70005e	-0.2343764
253	0xbe350841	-0.1767893
254	0xbdc3e573	-0.09565248
255	0xbf068568	-0.5254731

sequential_15/dense_30/MatMul/ReadVariableOp/transpose f4 [64, 256]
0	0x3e35bc5b	0.17747633
1	0x3dafa9cb	0.08577307
2	0x3db15312	0.086584225
3	0x3e73cad9	0.23807849
4	0x3e3c0719	0.18362083
5	0x3e71d955	0.23618062
6	0x3b62a72b	0.0034584503
7	0x3dda6d46	0.106653735
8	0xbc779e70	-0.015113458
9	0x3df8fec0	0.12157965
10	0x3dd9f898	0.106431186
11	0xbcd0a6b0	-0.025470108
12	0xbeabd71d	-0.33562556
13	0xbe81b63a	-0.2533434
14	0xbee78660	-0.45219707
15	0xbe9e3e70	-0.3090701
16	0x3d0c74c1	0.034291033
17	0x3e49fa76	0.1972445
18	0xbdaee1ba	-0.08539148
19	0x3e86980e	0.26287884
20	0xbe17a667	-0.14809571
21	0x3c913fb4	0.017730571
22	0xbc81354b	-0.015772482
23	0xbe734f6d	-0.23760767
24	0x3e000798	0.12502897
25	0x3d8e75e5	0.0695608
26	0xbd0709d5	-0.03296836
27	0x3de51bfa	0.11186977
28	0x3e8bec0a	0.2732852
29	0x3cd31cd5	0.025770584
30	0x3eafd7e5	0.34344402
31	0x3e773ea5	0.2414499
32	0x3dcdd455	0.10050265
33	0x3e36235e	0.17786929
34	0x3df18b2b	0.11794122
35	0x3dc7405c	0.097290725
36	0xbdcab06f	-0.09896933
37	0x3cf7c7f3	0.03024671
38	0x3dea03ab	0.11426481
39	0xbdb0b997	-0.086291485
40	0x3dbbf43a	0.09177442
41	0xbd23ddec	-0.040006563
42	0x3e17e07f	0.14831732
43	0x3e77df60	0.24206305
44	0x3e11b55e	0.14229342
45	0x3e1ad11a	0.15118828
46	0x3edfcb35	0.43709722
47	0x3efb3c1c	0.49069297
48	0xbd42a2ad	-0.04751842
49	0xbed96051	-0.42456296
50	0x3e3fcc1f	0.1873021
51	0xbe03e082	-0.12878612
52	0x3c3ce7ad	0.011529845
53	0x3c7f1c22	0.015570672
54	0xbd6843d5	-0.056705315
55	0x3e4e4b34	0.20145875
56	0x3eb7e4e9	0.35916832
57	0x3ece1731	0.4025207
58	0x3dc334f7	0.095315866
59	0x3ec40953	0.38288364
60	0x3e7bab8a	0.24577156
61	0x3ec76662	0.389453
62	0x3eddd27c	0.4332465
63	0x3ea02bc7	0.312834
64	0xbeb7cff1	-0.35900834
65	0xbf006890	-0.5015955
66	0xbe71ea9e	-0.23624656
67	0xbde1555e	-0.110026106
68	0xbe0f65a4	-0.14003617
69	0x3e20835b	0.15675108
70	0x3dd61d58	0.104548156
71	0x3ed126d9	0.4084995
72	0x3e98b85a	0.2982815
73	0x3ea636f8	0.32463813
74	0x3e231c01	0.15928651
75	0x3e161eaa	0.14660135
76	0x3ea0a962	0.3137923
77	0x3e2bb50d	0.16768284
78	0x3ec7e2d4	0.39040244
79	0x3edd405d	0.43213168
80	0xbec61ea5	-0.38695255
81	0xbe97132f	-0.29506823
82	0x3e758321	0.23975803
83	0xbe4b3ea8	-0.1984812
84	0x3bb484b6	0.0055089844
85	0x3e483b13	0.19553785
86	0x3e28ada0	0.16472483
87	0x3e5b9d82	0.21446803
88	0x3e219be6	0.15782127
89	0x3e518e73	0.20464496
90	0x3e349b38	0.17637336
91	0x3e9375a7	0.288007
92	0x3ed0a7a0	0.40752888
93	0x3d01c890	0.031685412
94	0x3ecb396a	0.3969224
95	0xbd975ef1	-0.073911555
96	0xbeb32edc	-0.34996688
97	0xbeb3de99	-0.35130766
98	0xbd87bd01	-0.066278465
99	0xbdd6f268	-0.10495454
100	0x3e49276b	0.19643943
101	0x3d2174e0	0.0394181
102	0x3e2224fe	0.15834424
103	0xbd39b66d	-0.04533999
104	0x3e15746d	0.14595194
105	0x3cbea1f5	0.023270587
106	0x3e3832d8	0.17988145
107	0x3eecde04	0.46263134
108	0x3e284b14	0.1643489
109	0xbda22497	-0.07917135
110	0xbe8deda5	-0.2772037
111	0xbddca0f3	-0.10772886
112	0xbead5e0e	-0.3386082
113	0xbdec3ce3	-0.11535051
114	0x3d11125d	0.035417903
115	0x3e04c56e	0.12965938
116	0x3d9e49cc	0.077289194
117	0x3ddcd4d9	0.10782785
118	0x3e8a02e3	0.26955327
119	0x3e0c8b64	0.13725048
120	0x3ea616c7	0.32439253
121	0x3e187675	0.14888938
122	0x3e41bbc7	0.18919288
123	0x3e81cbd1	0.25350812
124	0x3e6299d8	0.22128999
125	0x3b9b9f79	0.004749235
126	0x3bb85ab1	0.0056260456
127	0xbd62cb25	-0.055369515
128	0xbe3dd46b	-0.18538062
129	0xbea89c49	-0.32931736
130	0xbd373e80	-0.04473734
131	0xbd25b6a3	-0.04045738
132	0xbe1500e0	-0.14551115
133	0xbbe73e87	-0.0070570144
134	0x3e93922a	0.28822452
135	0x3ecf490c	0.40485418
136	0x3e655c89	0.2239858
137	0x3e9df784	0.30852902
138	0x3dbdc3ea	0.09265883
139	0xbd4dbae6	-0.05022707
140	0x3df9870b	0.121839605
141	0xbbaa1eb1	-0.005191647
142	0xbe3b77d3	-0.18307428
143	0xbd420cab	-0.047375362
144	0xbe38757d	-0.18013568
145	0xbe15c62a	-0.14626375
146	0xbe98e723	-0.29863843
147	0xbc6d86b6	-0.01449745
148	0xbce00777	-0.02734731
149	0x3e2a54af	0.16633867
150	0x3d1cc6cc	0.038275525
151	0x3e8c9d3a	0.27463704
152	0x3e360654	0.17775851
153	0x3e08cb11	0.13358714
154	0xbd79cd5e	-0.06098687
155	0xbd8f3fd8	-0.06994599
156	0xbd7cc0a4	-0.061707154
157	0xbd80eded	-0.06295381
158	0xbdf14112	-0.11779989
159	0xbdb0b3ad	-0.086280204
160	0xbd468f76	-0.04847666
161	0xbe9ff7b3	-0.31243667
162	0xbea1b12a	-0.31580478
163	0xbe837092	-0.25671822
164	0xbdccb7ee	-0.09996019
165	0x3e02290f	0.12710975
166	0x3e40759e	0.18794867
167	0x3ddb9865	0.10722426
168	0xbdf7e212	-0.12103666
169	0xbe2e9fd0	-0.17053151
170	0xbd428d16	-0.04749783
171	0xbd9e32b9	-0.07724518
172	0xbd449fa1	-0.048003796
173	0x3dd26a48	0.10274178
174	0xbe11f86f	-0.14254926
175	0xbec183ce	-0.37795871
176	0xbd5da835	-0.054115493
177	0xbe193167	-0.14960252
178	0xbe544b8a	-0.20731941
179	0xbe1fbc4e	-0.15599176
180	0xbe25dafe	-0.1619682
181	0xbd209a2e	-0.039209537
182	0x3d1ad7d2	0.03780348
183	0xbd78c8fb	-0.060738545
184	0xbe1e7c84	-0.15477186
185	0xbe3fb3cb	-0.1872093
186	0xbdea6698	-0.114453495
187	0xbe20ebfe	-0.15715024
188	0xbe79a71d	-0.24380155
189	0xbe9bd8e6	-0.30438918
190	0xbe8428fc	-0.2581252
191	0xbe63782d	-0.22213812
192	0xbf0ec980	-0.55776215
193	0xbea2d389	-0.31802014
194	0xbe5b228e	-0.213999
195	0xbe636cec	-0.22209519
196	0xbe226007	-0.15856944
197	0x3d4ff6fb	0.05077265
198	0xbed58876	-0.41705674
199	0xbe2347ec	-0.15945405
200	0xbeb36f9a	-0.35046083
201	0xbece602e	-0.40307754
202	0xbebadf60	-0.36498547
203	0xbda08c72	-0.07839288
204	0xbdd9e5de	-0.10639547
205	0x3da1e928	0.07905799
206	0x3db370ad	0.087617256
207	0xbdc05d58	-0.09392804
208	0xbeabe8cf	-0.33576056
209	0xbdbc6499	-0.09198875
210	0xbe3cafdc	-0.1842646
211	0xbdc3eaae	-0.09566246
212	0xbda0a8c6	-0.07844691
213	0xbec1532c	-0.37758768
214	0xbe1f664c	-0.15566367
215	0xbe9970b2	-0.29968792
216	0xbe78b536	-0.24287876
217	0xbe4cd656	-0.20003638
218	0x3d320663	0.043463122
219	0x3dbf29c3	0.09334137
220	0xbe02968f	-0.12752746
221	0x3d94ae4f	0.07259809
222	0x3e8ee94d	0.2791237
223	0x3db2e65a	0.08735342
224	0xbe174700	-0.14773178
225	0xbddd5487	-0.10807138
226	0xbd96e64c	-0.073681444
227	0x3cc73fdb	0.02432244
228	0xbda3ecbb	-0.08004137
229	0x3dae12f5	0.084997095
230	0xbc83e9d0	-0.016102701
231	0x3d9b791c	0.07591459
232	0xbe47d8c9	-0.1951629
233	0xbe082b65	-0.13297804
234	0x3ccbe3f3	0.024888968
235	0xbd5a715e	-0.05333077
236	0xbe57531f	-0.21027802
237	0xbd617715	-0.055045206
238	0x3dfc5f4f	0.12322866
239	0xbd5c4d73	-0.0537848
240	0x3ce0b366	0.027429294
241	0xbe8753b5	-0.2643105
242	0xbe0bdd31	-0.13658597
243	0x3c6e55b0	0.014546797
244	0xbd48b481	-0.049000267
245	0xbe54cf97	-0.20782314
246	0x3d456c59	0.04819903
247	0xbdbc121e	-0.09183143
248	0x3e16b74e	0.14718363
249	0x3d4d3fa2	0.050109513
250	0xbe4a343e	-0.19746491
251	0x3d57ae92	0.052656718
252	0xbd6184bd	-0.05505823
253	0xbece272f	-0.4026427
254	0xbebd4720	-0.36968327
255	0xbcb9d306	-0.022683632

sequential_15/dense_30/MatMul_bias f4 [64]
0	0xbd946ae4	-0.0724695
1	0x3d00a8f7	0.031411137
2	0x3e0d363e	0.13790223
3	0xbda86bbb	-0.08223673
4	0x3d9c7211	0.07638944
5	0xbe1324c8	-0.143695
6	0xbe81382a	-0.25238162
7	0xbdc97369	-0.09836466
8	0x3daa2770	0.08308303
9	0x3e8c7e04	0.27439892
10	0x3db44e28	0.088039696
11	0x3d6f855d	0.058476795
12	0x3d88ce02	0.06679918
13	0x3dace5d7	0.08442276
14	0xbe182ef5	-0.14861663
15	0x3e6917b2	0.22762945
16	0x3e1ced81	0.15324976
17	0x3ec4f6c9	0.38469532
18	0xbd955691	-0.07291902
19	0x3e888762	0.2666579
20	0xbd3f6d90	-0.046735346
21	0x3bdc973d	0.006731896
22	0xbe25f86b	-0.16208045
23	0xbe65f210	-0.22455621
24	0xbe985435	-0.29751745
25	0x3e0bac92	0.13640049
26	0x3ee77a60	0.45210552
27	0xbdd77ee0	-0.10522246
28	0x3eb5464e	0.354052
29	0xbe83a0de	-0.2570867
30	0x3e5ed758	0.21761835
31	0xbe57a4ba	-0.21058932
32	0xbe66913a	-0.22516337
33	0x3e88f2a4	0.2674762
34	0x3e23caaf	0.15995286
35	0xbe331e45	-0.17492016
36	0xbe8c4b1c	-0.27401054
37	0x3e25f77f	0.16207694
38	0x3e344ab9	0.1760663
39	0x3ed794cf	0.4210572
40	0xbe0b6de7	-0.13616143
41	0x3e4c1153	0.19928484
42	0x3e0e2c62	0.13884118
43	0xbdd0a023	-0.10186794
44	0x3dbe5c4e	0.092949495
45	0xbdf89639	-0.12138028
46	0xbea029c3	-0.31281862
47	0x3e163269	0.14667667
48	0xbe0a283f	-0.13491915
49	0xbe45a21e	-0.19300124
50	0x3e82a361	0.25515273
51	0x3ee00578	0.43754172
52	0x3ebacd47	0.3648474
53	0x3cd63915	0.026150266
54	0x3ec949f0	0.39314222
55	0xbe1fcc41	-0.1560526
56	0x3d53cd83	0.051709663
57	0x3d345df6	0.04403492
58	0xbd52a4e0	-0.05142677
59	0x3e15c92a	0.14627519
60	0x3ccf3599	0.025294112
61	0x3ea25f97	0.31713554
62	0xbdfaa1fa	-0.12237926
63	0xbd44161f	-0.04787266

sequential_15/dense_31/BiasAdd/ReadVariableOp/resource f4 [10]
0	0xbe596d07	-0.21232997
1	0xbe812f61	-0.2523146
2	0xbe63692c	-0.22208089
3	0xbe7c2659	-0.24624003
4	0xbe795651	-0.24349333
5	0xbe5be01d	-0.21472211
6	0xbe8d2093	-0.27563915
7	0xbe8feb4a	-0.281092
8	0xbe9cc3bb	-0.3061808
9	0xbe5a8dcf	-0.21343158

sequential_15/dense_31/MatMul/ReadVariableOp/resource f4 [64, 10]
0	0xbf6008e6	-0.8751358
1	0x3e983b57	0.29732773
2	0xbee924eb	-0.4553598
3	0x3e47ccd3	0.19511728
4	0xbf432c35	-0.7623933
5	0xbf7897b0	-0.97106457
6	0xbf4f2c73	-0.809272
7	0x3ec4bb9d	0.38424388
8	0x3e6c72ab	0.23090617
9	0x3ece675f	0.4031324
10	0xbe1e1b66	-0.15440139
11	0xbf6c4ad4	-0.9230168
12	0xbef85348	-0.4850104
13	0x3dbb144f	0.09134733
14	0x3ea35a9d	0.3190507
15	0x3d899250	0.0671736
16	0x3d54167a	0.051779248
17	0xbf80d3e4	-1.0064664
18	0xbf29ba7f	-0.66300195
19	0x3b269a16	0.0025421432
20	0xbf53b67b	-0.8270032
21	0x3eca475b	0.39507565
22	0xbf7bf155	-0.9841512
23	0x3e0edc94	0.13951331
24	0xbddc1cc1	-0.10747672
25	0x3d5b50b5	0.053543765
26	0xbcb1c291	-0.021699222
27	0x3e59eafc	0.21281046
28	0x3d73a8a1	0.05948699
29	0xbf624c09	-0.8839727
30	0x3f02c88a	0.5108725
31	0xbe9f771e	-0.31145567
32	0xbf862fac	-1.0483298
33	0x3dc4de27	0.09612685
34	0xbf0f75d9	-0.56039196
35	0xbee10626	-0.43950003
36	0xbf4ce9be	-0.8004416
37	0x3e882f9a	0.26598817
38	0x3e158d58	0.146047
39	0x3e3a4578	0.18190563
40	0xbe93ae6b	-0.28844008
41	0xbe8daae2	-0.27669436
42	0xbdf00eb9	-0.11721558
43	0xbf3d58bb	-0.73963517
44	0xbdb29236	-0.08719294
45	0xbf5d6ff1	-0.86498934
46	0xbeda08d9	-0.42584875
47	0xbe3c9cbe	-0.18419167
48	0xbeee35d8	-0.46525455
49	0xbd149b9d	-0.036281217
50	0xbf141f12	-0.5785991
51	0xbf563718	-0.83677816
52	0xbe696129	-0.2279097
53	0xbde67ae9	-0.11253912
54	0x3de7b455	0.113136925
55	0x3e813f4d	0.25243607
56	0xbe09481c	-0.13406414
57	0xbf08b3ba	-0.5339924
58	0x3ea227db	0.31671032
59	0xbf22ff4d	-0.6367081
60	0xbead96f1	-0.33904222
61	0xbf3325af	-0.69979376
62	0xbe2c26a0	-0.1681161
63	0xbee5f94e	-0.44916767
64	0xbf872b4b	-1.0560087
65	0xbd7a9f43	-0.06118704
66	0x3c6a87c8	0.014314599
67	0xbdbabad6	-0.091176674
68	0xbe1108dd	-0.14163537
69	0x3e157cf2	0.14598444
70	0xbf5139b3	-0.8172867
71	0x3e7ea4ba	0.24867526
72	0x3e5efdcc	0.21776503
73	0x3e965a58	0.29365802
74	0xbf6b0d05	-0.9181674
75	0xbf1ac9d1	-0.604642
76	0x3ea95ec1	0.33080104
77	0xbe514222	-0.20435384
78	0xbe01053b	-0.12599652
79	0xbd60f62a	-0.05492226
80	0xbf59c569	-0.8506685
81	0x3e44262b	0.19155185
82	0xbf63418b	-0.88771886
83	0x3eb9b70b	0.36272463
84	0x3ee4c5da	0.446822
85	0xbdb4db08	-0.088308394
86	0xbe102c39	-0.1407937
87	0xbf7fd449	-0.99933296
88	0xbe153ba9	-0.1457354
89	0xbdb0a7f0	-0.086257815
90	0xbf45e358	-0.77300024
91	0x3de1098c	0.10988149
92	0xbd837563	-0.06418874
93	0xbe1109f2	-0.1416395
94	0xbf853f83	-1.0410007
95	0x3ed67290	0.4188428
96	0xbf57b3c0	-0.8425865
97	0x3e48dbfb	0.19615166
98	0xbea83136	-0.32850045
99	0xbe02b651	-0.1276486
100	0xbf4015bf	-0.7503318
101	0xbf60a923	-0.8775808
102	0x3e9a078e	0.3008389
103	0x3eaa6490	0.33279848
104	0xbf248fbd	-0.6428183
105	0x3dc74753	0.09730401
106	0xbf24f038	-0.64429045
107	0x3e51677c	0.20449632
108	0xbf296215	-0.66165286
109	0x3ed8a028	0.4230969
110	0xbce06508	-0.027391925
111	0x3e958c76	0.29208726
112	0x3ea332c8	0.3187468
113	0xbed1ca99	-0.40974882
114	0xbf599124	-0.8498709
115	0xbd06c346	-0.03290107
116	0xbf59ff42	-0.8515512
117	0xbf555351	-0.83330256
118	0x3e269cc7	0.16270743
119	0xbdeab448	-0.11460167
120	0x3df3edac	0.11910567
121	0x3d861885	0.065476455
122	0xbf24beef	-0.6435384
123	0xbeb220cf	-0.34790656
124	0xbf5e9a09	-0.8695379
125	0x3e9b2c6d	0.30307332
126	0xbe58641c	-0.21131939
127	0xbf10de4c	-0.565892
128	0xbe883f14	-0.26610625
129	0x3cb53b90	0.022123128
130	0xbf2a3b97	-0.66497177
131	0x3ebdfd4b	0.3710731
132	0xbf53b5ad	-0.8269909
133	0x3eebe0b7	0.4606988
134	0x3ec12a12	0.3772741
135	0xbf441c49	-0.7660566
136	0xbebd0590	-0.36918306
137	0x3eff8542	0.49906355
138	0x3d6ae3c9	0.05734614
139	0xbf700fbe	-0.9377402
140	0x3ec2654c	0.37967908
141	0xbe9bc526	-0.3042385
142	0xbe0a3527	-0.13496839
143	0x3e88637a	0.26638395
144	0xbf12d173	-0.57350844
145	0xbf345f31	-0.7045775
146	0x3e957a4e	0.29194874
147	0xbf7330ea	-0.9499651
148	0xbd335a57	-0.043787327
149	0xbf37fcc9	-0.71870095
150	0xbf04ff10	-0.51951694
151	0xbf0f965b	-0.560888
152	0x3f058db5	0.5216935
153	0x3eba51da	0.36390573
154	0xbf243ee6	-0.64158475
155	0x3f170a09	0.5899969
156	0x3eb2318d	0.3480343
157	0xbd617169	-0.055039797
158	0xbf89ff5e	-1.0781057
159	0xbf4bb695	-0.79575473
160	0x3eb4e9b1	0.35334542
161	0xbee7425a	-0.4516781
162	0x3d34cc24	0.044139996
163	0x3e94ded2	0.29076248
164	0xbe7838a7	-0.24240361
165	0xbf453919	-0.7704025
166	0x3ea07b62	0.31344134
167	0x3e921076	0.28528184
168	0xbf3b7725	-0.73228675
169	0xbf79e2f2	-0.97611916
170	0xbedff39f	-0.43740556
171	0x3e8f78c5	0.28021827
172	0xbf1cd0fd	-0.6125639
173	0xbf1407e9	-0.5782457
174	0x3e60cffd	0.21954341
175	0xbe4788d2	-0.19485787
176	0x3f102ad1	0.5631533
177	0x3eaba3f3	0.3352352
178	0xbf69f5c4	-0.91390634
179	0xbf3cc24e	-0.73733985
180	0x3ead0af3	0.33797416
181	0xbf602f2f	-0.87571996
182	0xbcd160c6	-0.02555884
183	0xbf83abf3	-1.028685
184	0x3efb8b5a	0.49129754
185	0xbe01605a	-0.12634411
186	0xbd48e927	-0.049050476
187	0xbe77961e	-0.24178359
188	0x3be1dca8	0.0068927594
189	0xbf8359f2	-1.0261824
190	0x3c1b9222	0.00949529
191	0x3e12a1c4	0.14319521
192	0xbe651f65	-0.22375257
193	0xbf55c4c1	-0.8350335
194	0x3e11f7be	0.14254662
195	0xbe151f59	-0.1456274
196	0xbe558272	-0.20850542
197	0xbf37d11e	-0.7180346
198	0xbf69b182	-0.9128648
199	0x3ec2aa22	0.38020426
200	0xbe10f746	-0.14156827
201	0xbf20b420	-0.6277485
202	0xbe123655	-0.14278539
203	0xbdd2ea31	-0.10298575
204	0x3e8e476d	0.2778887
205	0xbf6b31b0	-0.9187269
206	0xbf2d437e	-0.6768111
207	0xbe127c87	-0.14305316
208	0x3b697147	0.0035620497
209	0x3ea069f4	0.31330836
210	0xbf12d6af	-0.5735883
211	0x3f0fbe0f	0.5614938
212	0x3f32aa03	0.6979067
213	0xbea89e59	-0.3293331
214	0xbdef9e8c	-0.11700162
215	0xbf34818a	-0.7051016
216	0xbeea7215	-0.45790163
217	0xbdd1339a	-0.1021492
218	0x3e79ee1c	0.24407238
219	0xbf46e517	-0.77693313
220	0xbc9d275d	-0.019183809
221	0x3de7cef1	0.11318768
222	0xbf44f27c	-0.769325
223	0xbf33e635	-0.70273143
224	0x3ccd5f60	0.025069892
225	0xbf6fa6bf	-0.9361381
226	0xbde9b907	-0.11412244
227	0xbe1f6ff4	-0.1557005
228	0x3dda17a9	0.10649044
229	0xbea36336	-0.3191163
230	0xbf256439	-0.6460605
231	0x3f022fac	0.5085399
232	0xbf37502b	-0.716067
233	0x3d916bc2	0.07100631
234	0xbf484cde	-0.7824229
235	0xbf0ba063	-0.54541606
236	0xbec6c14d	-0.38819352
237	0xbecac5c2	-0.39604002
238	0x3eec38c2	0.46137053
239	0x3e8d1d5f	0.2756147
240	0x3e472c4d	0.19450493
241	0xbf78830d	-0.9707497
242	0x3e7865bd	0.2425756
243	0xbe359c46	-0.17735395
244	0xbf2837a8	-0.65709925
245	0xbf01f5e3	-0.5076582
246	0xbf12a2bd	-0.5727957
247	0xbf2c49dc	-0.673002
248	0xbd7539b6	-0.05986949
249	0x3dcd24d4	0.1001679
250	0xbf1879fe	-0.59561145
251	0x3e1d43f9	0.15357961
252	0x3db4cf80	0.0882864
253	0xbf566666	-0.8375
254	0xbec95241	-0.39320567
255	0x3eb0d666	0.34538573

sequential_15/dense_31/MatMul/ReadVariableOp/transpose f4 [10, 64]
0	0xbf6008e6	-0.8751358
1	0xbe1e1b66	-0.15440139
2	0xbf53b67b	-0.8270032
3	0x3f02c88a	0.5108725
4	0xbe93ae6b	-0.28844008
5	0xbf141f12	-0.5785991
6	0xbead96f1	-0.33904222
7	0xbf5139b3	-0.8172867
8	0xbf59c569	-0.8506685
9	0xbf45e358	-0.77300024
10	0xbf4015bf	-0.7503318
11	0xbce06508	-0.027391925
12	0x3df3edac	0.11910567
13	0xbf2a3b97	-0.66497177
14	0x3ec2654c	0.37967908
15	0xbf04ff10	-0.51951694
16	0x3eb4e9b1	0.35334542
17	0xbedff39f	-0.43740556
18	0x3ead0af3	0.33797416
19	0x3c1b9222	0.00949529
20	0xbe10f746	-0.14156827
21	0xbf12d6af	-0.5735883
22	0xbc9d275d	-0.019183809
23	0xbf256439	-0.6460605
24	0x3e472c4d	0.19450493
25	0xbf1879fe	-0.59561145
26	0xbf4ea93a	-0.8072697
27	0x3ef78034	0.4834
28	0x3eb8eeff	0.3611984
29	0xbee795d1	-0.45231488
30	0xbf3f553e	-0.74739444
31	0x3d4781ca	0.04870776
32	0xbf2cb632	-0.6746551
33	0xbaa8c56f	-0.0012876223
34	0xbe929848	-0.28631806
35	0xbe2ac177	-0.16675363
36	0xbd70e6f8	-0.05881402
37	0xbef6d480	-0.48209
38	0xbf4333b8	-0.7625079
39	0xbf026b2a	-0.5094477
40	0xbecb02d0	-0.39650583
41	0x3eaccac7	0.33748457
42	0x3eec57b1	0.46160653
43	0xbf34585c	-0.70447326
44	0x3eab2b5b	0.33431515
45	0xbf32950d	-0.69758683
46	0x3ddb5a43	0.107105754
47	0xbe3f98f0	-0.18710685
48	0xbe0313b3	-0.12800483
49	0xbf06d8ee	-0.5267476
50	0x3e86d848	0.26336884
51	0xbf71a614	-0.9439404
52	0x3e20d3f3	0.15705852
53	0xbf16d180	-0.5891342
54	0xbef223e8	-0.4729302
55	0xbf435e59	-0.7631584
56	0xbf3fa3ff	-0.74859613
57	0xbf3c7a56	-0.7362417
58	0x3e7d416a	0.24731985
59	0x3b92e356	0.004482667
60	0x3ebf5499	0.3736923
61	0x3e5ff085	0.21869095
62	0x3e9c7026	0.30554312
63	0xbf0feb82	-0.5621873
64	0x3e983b57	0.29732773
65	0xbf6c4ad4	-0.9230168
66	0x3eca475b	0.39507565
67	0xbe9f771e	-0.31145567
68	0xbe8daae2	-0.27669436
69	0xbf563718	-0.83677816
70	0xbf3325af	-0.69979376
71	0x3e7ea4ba	0.24867526
72	0x3e44262b	0.19155185
73	0x3de1098c	0.10988149
74	0xbf60a923	-0.8775808
75	0x3e958c76	0.29208726
76	0x3d861885	0.065476455
77	0x3ebdfd4b	0.3710731
78	0xbe9bc526	-0.3042385
79	0xbf0f965b	-0.560888
80	0xbee7425a	-0.4516781
81	0x3e8f78c5	0.28021827
82	0xbf602f2f	-0.87571996
83	0x3e12a1c4	0.14319521
84	0xbf20b420	-0.6277485
85	0x3f0fbe0f	0.5614938
86	0x3de7cef1	0.11318768
87	0x3f022fac	0.5085399
88	0xbf78830d	-0.9707497
89	0x3e1d43f9	0.15357961
90	0x3ec11a50	0.37715387
91	0xbecfddb3	-0.4059883
92	0x3efdfcaf	0.49606845
93	0xbf7dfce9	-0.99214035
94	0xbcde96c0	-0.027171493
95	0xbf60bdec	-0.877898
96	0xbf43852b	-0.76375073
97	0xbe0fd3f1	-0.14045693
98	0xbe5ea991	-0.21744372
99	0xbec32b97	-0.38119194
100	0xbf883934	-1.0642457
101	0x3ed733d9	0.42031744
102	0x3bfab536	0.0076509966
103	0xbd0dc3fc	-0.034610733
104	0xbf6e8d99	-0.9318481
105	0xbf5f91be	-0.8733176
106	0xbefd8592	-0.4951597
107	0xbe8b3995	-0.2719237
108	0xbf39dc8d	-0.7260216
109	0xbdb10b03	-0.086446784
110	0xbf0c7c9a	-0.54877627
111	0x3dc52dbf	0.09627866
112	0xbf610e95	-0.87912875
113	0xbe376975	-0.17911322
114	0xbee7d76c	-0.4528154
115	0xbe47b387	-0.19502078
116	0x3c10910c	0.008823644
117	0xbf31d04e	-0.6945847
118	0x3f4e0a04	0.8048403
119	0xbf0bf524	-0.5467093
120	0x3e8c1d39	0.27366045
121	0x3eb9590d	0.36200753
122	0x3d8b31d2	0.06796612
123	0xbf03f7ce	-0.51549995
124	0xbd5cc350	-0.053897202
125	0x3ea9d312	0.33168846
126	0xbe22ec6f	-0.15910505
127	0x3e4699ec	0.19394654
128	0xbee924eb	-0.4553598
129	0xbef85348	-0.4850104
130	0xbf7bf155	-0.9841512
131	0xbf862fac	-1.0483298
132	0xbdf00eb9	-0.11721558
133	0xbe696129	-0.2279097
134	0xbe2c26a0	-0.1681161
135	0x3e5efdcc	0.21776503
136	0xbf63418b	-0.88771886
137	0xbd837563	-0.06418874
138	0x3e9a078e	0.3008389
139	0x3ea332c8	0.3187468
140	0xbf24beef	-0.6435384
141	0xbf53b5ad	-0.8269909
142	0xbe0a3527	-0.13496839
143	0x3f058db5	0.5216935
144	0x3d34cc24	0.044139996
145	0xbf1cd0fd	-0.6125639
146	0xbcd160c6	-0.02555884
147	0xbe651f65	-0.22375257
148	0xbe123655	-0.14278539
149	0x3f32aa03	0.6979067
150	0xbf44f27c	-0.769325
151	0xbf37502b	-0.716067
152	0x3e7865bd	0.2425756
153	0x3db4cf80	0.0882864
154	0xbdd69dd6	-0.104793236
155	0x3f304e1f	0.68869203
156	0xbf36f672	-0.71469796
157	0x3e37c612	0.17946652
158	0xbe97a38a	-0.29616958
159	0x3dffa73b	0.124830686
160	0x3e37826b	0.17920844
161	0xbf2455ed	-0.6419361
162	0xbea2d6ad	-0.3180441
163	0xbeee1f83	-0.46508417
164	0xbf2d2470	-0.67633724
165	0x3f1d67b7	0.6148638
166	0x3de0cb41	0.109762676
167	0xbf36f9a2	-0.7147466
168	0xbe96df5f	-0.29467294
169	0xbf35e125	-0.7104667
170	0x3de2fe41	0.11083651
171	0xbe2fa622	-0.17153218
172	0xbed036ed	-0.40666905
173	0xbf5ff084	-0.8747637
174	0xbf48ec09	-0.7848516
175	0xbf75fcab	-0.96088666
176	0x3cfb0c27	0.030645443
177	0xbf7c2244	-0.98489785
178	0x3e45f109	0.19330229
179	0x3d9058af	0.07048165
180	0xbf730b62	-0.94939244
181	0xbee6d147	-0.4508154
182	0x3edb0fe4	0.4278556
183	0xbde25fc0	-0.11053419
184	0x3ed4844e	0.4150719
185	0xbd9b9be1	-0.07598091
186	0xbedea53d	-0.43485442
187	0xbed643d7	-0.41848633
188	0x3eaec3b7	0.34133694
189	0x3eb3e821	0.35138038
190	0xbe9980c9	-0.29981068
191	0xbea0bdbd	-0.3139476
192	0x3e47ccd3	0.19511728
193	0x3dbb144f	0.09134733
194	0x3e0edc94	0.13951331
195	0x3dc4de27	0.09612685
196	0xbf3d58bb	-0.73963517
197	0xbde67ae9	-0.11253912
198	0xbee5f94e	-0.44916767
199	0x3e965a58	0.29365802
200	0x3eb9b70b	0.36272463
201	0xbe1109f2	-0.1416395
202	0x3eaa6490	0.33279848
203	0xbed1ca99	-0.40974882
204	0xbeb220cf	-0.34790656
205	0x3eebe0b7	0.4606988
206	0x3e88637a	0.26638395
207	0x3eba51da	0.36390573
208	0x3e94ded2	0.29076248
209	0xbf1407e9	-0.5782457
210	0xbf83abf3	-1.028685
211	0xbf55c4c1	-0.8350335
212	0xbdd2ea31	-0.10298575
213	0xbea89e59	-0.3293331
214	0xbf33e635	-0.70273143
215	0x3d916bc2	0.07100631
216	0xbe359c46	-0.17735395
217	0xbf566666	-0.8375
218	0xbe8d258f	-0.27567717
219	0xbf1250c7	-0.57154506
220	0xbece4f6f	-0.40294978
221	0xbeadabee	-0.33920234
222	0xbf4075e8	-0.7517991
223	0xbd9880a6	-0.07446413
224	0xbe1a525a	-0.15070477
225	0xbf495a02	-0.78652966
226	0xbe4167d2	-0.1888726
227	0xbf68dc9b	-0.9096162
228	0xbf5104b9	-0.8164783
229	0xbf8b72d7	-1.0894421
230	0xbe47ef2e	-0.19524834
231	0x3f0624cf	0.52399915
232	0x3ed386f1	0.4131389
233	0xbe2f56bf	-0.17122935
234	0xbc21ecaf	-0.00988309
235	0x3e32b50c	0.17451876
236	0x3e798302	0.24366382
237	0xbd62e6ea	-0.055395998
238	0x3e0bb107	0.1364175
239	0xbea3d8d8	-0.32001376
240	0xbf7d97b4	-0.99059606
241	0xbf51fdfa	-0.8202816
242	0xbe81b4e2	-0.25333315
243	0x3d3829e5	0.04496183
244	0x3f014828	0.50500727
245	0x3efb9afa	0.49141675
246	0x3e98f50d	0.2987446
247	0x3e934e41	0.2877064
248	0xbf5b05a9	-0.8555551
249	0xbf6c8466	-0.92389524
250	0xbea19670	-0.31560087
251	0xbefc0644	-0.4922353
252	0xbf8015c6	-1.0006645
253	0x3ee19e70	0.4406619
254	0xbf7ad1a2	-0.97976124
255	0xbf237d06	-0.63862646

sequential_15/dense_31/MatMul_bias f4 [10]
0	0xbe596d07	-0.21232997
1	0xbe812f61	-0.2523146
2	0xbe63692c	-0.22208089
3	0xbe7c2659	-0.24624003
4	0xbe795651	-0.24349333
5	0xbe5be01d	-0.21472211
6	0xbe8d2093	-0.27563915
7	0xbe8feb4a	-0.281092
8	0xbe9cc3bb	-0.3061808
9	0xbe5a8dcf	-0.21343158
